Q_network_parameters.pkl (torch, 24623 bytes, 8 tensors)

layer_1.weight f4 [50, 2]
00000000: 2b10 023f 649a 063e 826b e0be aec6 d93e
00000010: 5f79 6abf 8c84 0b3f a2a4 d7be 6835 673f
00000020: d05e 3e3e c083 b23c 8f8c 2fbf 6466 813e
00000030: 88ea d7bd f009 463e 3880 54be 9897 c73d
00000040: 0339 cbbe ff5c 223e 9450 1cbf a158 473f
00000050: 3778 fd3e 0a0f 203f efde d8be 9f12 603f
00000060: b66c 21be 9a8a fbbe 7fd5 ae3e dc22 ae3d
00000070: 0087 b9bc 437f f3be bc10 19bf 9ea6 853e
00000080: 44b8 32bf 10fa 1c3f 3116 313f 1603 8c3f
00000090: 83fd 16be b19e 383f e8ad b9be 1ca0 75be
000000a0: 264e 823c 24d3 de3e d0de 153d 6502 28bf
000000b0: 6a69 3c3f 5a86 073f 5077 12be a268 f1be
000000c0: c330 ecbe f1f6 b13d 0dbd 0d3f f842 d2bd
000000d0: 8314 24bf dc8b 283e b958 01bf d1c6 d9be
000000e0: 00f8 8cba 20ae 7bbd 1b42 493d 8481 9c3e
000000f0: b644 3b3f 729b a6be 9ed7 d8be 7288 cd3e
00000100: f170 193f 31e8 0dbf b9e4 d2be f620 c8be
00000110: e9f1 853e 6c06 d33d db29 293f aed9 2e3f
00000120: 996a 2b3f e018 ce3d 2f7f fbbe 7f81 9e3e
00000130: 7e6b a13e 414a 28bf cbf4 19bf 28e3 093f
00000140: 10b8 31be b28e 00bf 38b8 843f d513 c83e
00000150: a5c1 373f e37a 48be c3b7 0f3f c570 79be
00000160: 34c0 1ebe 6edf f43e 81ff 413e 30b2 eb3e
00000170: 5daf 833f b2f6 2cbe 9a54 273f 5e78 18bf
00000180: be5f 0e3f c9f0 843f cf9f 00bf 99f9 4d3e
0.5080592 0.13144833 -0.43832022 0.42534393 -0.9159145 0.54499125 -0.42117792 0.90315866
0.18590856 0.021791339 -0.6857385 0.2527343 -0.1054278 0.19339728 -0.20752037 0.09745711
-0.39691934 0.15855788 -0.6106045 0.7786961 0.4950578 0.6252295 -0.42357585 0.87528414
-0.15764126 -0.49129182 0.3414726 0.08502743 -0.02264738 -0.4755803 -0.5979116 0.2610368
-0.6981242 0.61319065 0.69174486 1.0938442 -0.14745145 0.72117144 -0.36265492 -0.23986858
0.015906405 0.43520463 0.036589444 -0.65628654 0.7359835 0.5293938 -0.14303327 -0.4715014
-0.46130952 0.086896785 0.55366594 -0.102666795 -0.640938 0.16459602 -0.50526005 -0.42534497
-0.0010755062 -0.061445355 0.04913531 0.30567563 0.7315172 -0.3254047 -0.42352003 0.40143162
0.5993796 -0.5543242 -0.41190127 -0.39087647 0.26161125 0.10303959 0.6607949 0.683009
0.6695953 0.10063338 -0.4912047 0.30958173 0.31527323 -0.657383 -0.6013915 0.5386224
-0.1735537 -0.50217736 1.0368719 0.3907763 0.71779853 -0.19578128 0.56139773 -0.24359424
-0.15503007 0.47826713 0.18945123 0.46034384 1.0287892 -0.16890982 0.65363467 -0.59558666
0.5561484 1.0385982 -0.5024385 0.20114745

layer_1.bias f4 [50]
00000000: e596 32bf 7c90 2bbf aae2 293f 72cb 00bd
00000010: e2d1 30bf 1da3 2dbf 5774 30bf 1cc1 06bf
00000020: 3878 433f 46ff 18be 9235 1fbf 96d1 9cbd
00000030: b9cf cf3e a6ed 143f 46c4 21bf 4d40 e8be
00000040: 28dc d93e ee6a 0bbf a1d5 85be e6ee 7fbe
00000050: 16f5 a1be 40ea 81bc 4804 8dbe 27e3 163f
00000060: 34e3 d33e 27e9 16bd 3626 5ebe 7a07 83be
00000070: 3860 91bd 7a8b e23d 43ab 83bb afa1 d9be
00000080: 9616 15bf 24aa b03d 212b a23e 8b80 acbe
00000090: cba6 4ebd 492c 523f 802d aebe eddb 9c3e
000000a0: d883 27be f4de 1dbe 3b84 bdbd 3466 273f
000000b0: 4a69 22bf 4126 4e3d 1b11 1b3e 3e2e 943e
000000c0: dcf4 2abf 289b 0f3f
-0.69761497 -0.6701734 0.66361487 -0.03144402 -0.69070256 -0.67827016 -0.6892752 -0.5263841
0.76355314 -0.14941129 -0.62191117 -0.07657163 0.40588167 0.5817512 -0.63190114 -0.45361558
0.42550778 -0.54460037 -0.26139548 -0.24993476 -0.31632298 -0.01585877 -0.2754233 0.58940357
0.4138428 -0.036843445 -0.21694264 -0.25591642 -0.070984304 0.11061759 -0.0040182187 -0.42506167
-0.5823759 0.08626202 0.3167353 -0.3369182 -0.050452035 0.82098824 -0.3401909 0.3063654
-0.16358888 -0.15417081 -0.092537366 0.65390325 -0.6344191 0.05032945 0.15143244 0.2894153
-0.66779876 0.56096125

layer_2.weight f4 [50, 50]
00000000: 98ed 40bd 123d 933d dee2 16be 68f9 15bd
00000010: ae63 f53d 82e1 20bd 7693 f93d c6c8 4abd
00000020: d69c fabd e1d5 bbbd 7a44 85be 9676 c7be
00000030: afc9 eb3d 67b0 053d f8a1 c33d c4e9 aa3d
00000040: e5be ba3d 08ed 863d 84f1 f9be 2832 503d
00000050: 5a53 6c3d ef57 93bd a9cf cdbb 5766 77bd
00000060: f143 febc 55c1 223d 5c98 98bc 20c8 07be
00000070: 80e5 bb3d eaeb e23b 85d0 873d c81e 6f3d
00000080: 8770 98bd 68d3 a53d 98eb 0cbe 1e47 7c3d
00000090: d023 81bd bb43 13be 9675 9dbd b624 2abe
000000a0: 300f 2a3d 3af8 4ebe fec5 21bd 0300 043e
000000b0: 5885 1d3d cf28 973c 1275 4e3c 1bd0 993d
000000c0: 5dc3 be3d 79b8 d63d 5ccc 02be 8354 0c3e
000000d0: 22cf c93e 763a 35be 9412 b23d cc21 87bd
000000e0: 5473 dabd 5036 8dbd 65ba 813d e42d 23bf
000000f0: 02d6 c6bf 0a01 013e 5697 ba3e b814 2cbd
00000100: d85a 823c 1cf8 42bd 6aa1 083e 0d4b ae3d
00000110: 672f b63f d8c7 85bd 5743 a6bd 005e 60bd
00000120: 59b1 2f3d 02ed 923c 219a 083e d1e0 e1bd
00000130: c0e1 643d 7e6e fd3d 25ad b8bd bae9 3cbd
00000140: ecbf 603d 9a9e ef3d f066 c13d 0f97 e93d
00000150: 0065 be3d de19 8d3e 6467 d23c fda5 eb3d
00000160: 5e6a 9f3d 9ac2 513e 6d9e 9bbd 54a8 43be
00000170: 17de 093e 54b1 febc f6d8 f63d 4189 98bd
00000180: be24 943d baac 4ebd 465e 3d3e f08a 253e
00000190: 900a a93d 34cb b03d 9941 7ebd fdce b43d
000001a0: 6e19 933d f9a3 9fbd aee9 f13d f7a6 cfbd
000001b0: 2dd8 453d 8148 183f 0dcf 6cbf 7bad 913e
000001c0: 41f9 ab3e d01f 9c3d 3425 08bd a0df 5e3c
000001d0: 9388 8abb da41 2dbe 647f 37be ceb0 2dbd
000001e0: 6510 f4bd 5039 74bc 75d0 0dbe 73ed 82bd
000001f0: 9f6f 0ebe fc37 113e 9230 0cbe 8cf7 fcbd
00000200: 0e2e 923d b97e 94bd bc3b 5d3e 7893 efbd
00000210: d61c 87bd d468 113d 27d1 043e d0ab 84bd
00000220: bfe6 7ebd f7d2 acbc 1c56 d5bd c33f a1bd
00000230: b03e c6bc e0b9 943c 6619 4f3e 4242 f43d
00000240: 7028 90bc 9667 60bd 83d9 123e 1319 943d
00000250: 8a2d 2ebd b6ac bc3c 9977 0a3e 3473 e8bd
00000260: 06c1 cc3d 204e b73b caa0 81bd 949c d73d
00000270: 18bb 593d 0f3f 0b3e 9e80 95bd ecc1 d4bc
00000280: 34fb 443d c2f9 31bd 6035 f4bd 8073 ddbd
00000290: ce73 b9bd de55 5bbd 1472 b4bd 70d0 43bc
000002a0: 54e5 76bd 11ad 0d3e aca8 0abd 248c 7fbd
000002b0: f72e 08be e408 98bd 4894 773d 3836 5d3d
000002c0: 40e8 e23c f499 683d 80e8 873d 404f 233c
000002d0: 96ae c2bd f4bd 093d 805d c1ba c2b1 f13d
000002e0: 26a4 0cbe 204a c63b b030 31bc 1686 dfbd
000002f0: 602e 8a3c 0905 033e 807c 67bd 80bc f53b
00000300: 8c79 f2bc 232f 85bd d626 acbd c24b c43d
00000310: 21a5 93bd 60b4 02be 2a27 4cbd 7661 c73d
00000320: b8df be3c a4c2 dabc f1ff 9dbd 90dc 023d
00000330: 5ed6 c5bd 7cb1 bebc 2b59 93bd 5e13 e1bd
00000340: d856 cbbd 12d2 99bd 04af b9bc 0c52 aa3d
00000350: caa4 fabd 7063 1ebc e0cf 143c 185e af3d
00000360: 50e6 4e3c 733c 023e 7048 623d acca 98bc
00000370: 8055 e6ba e423 2abd ffc8 08be 8ad6 a23d
00000380: 2c63 bf3d f8cb ccbd b1db b6bd e213 e73d
00000390: e8a2 7e3d 4064 173c b00a 173d 0825 bbbc
000003a0: 06d6 f8bd 3802 00be 8eef 47bd 406b bcbd
000003b0: 38d8 6abd 500d c73c 98dd c9bc 743f abbc
000003c0: 80ad f9ba d658 e93d a28c 9e3d 2c20 44bd
000003d0: 0052 843d 6c6b e0bd 7882 3abd 8040 25bb
000003e0: a3c5 03be a1f1 06be 9aeb de3d a3d7 043e
000003f0: 4e09 15be 7095 bb3d 4e35 b8bd c280 d6bd
-0.047101587 0.071893826 -0.1473498 -0.036614805 0.11981903 -0.03927756 0.12186329 -0.04950788
-0.12236945 -0.091716535 -0.26028806 -0.3895766 0.115130775 0.032638934 0.095523775 0.083453685
0.091184415 0.06588179 -0.48817074 0.050829083 0.057696678 -0.071945064 -0.0062808585 -0.060400333
-0.031038256 0.039735157 -0.018627338 -0.13259935 0.09174633 0.006925096 0.06631569 0.058378965
-0.07443338 0.08096963 -0.13761747 0.06159126 -0.06305659 -0.14381306 -0.07688443 -0.16615567
0.04151839 -0.20211878 -0.03949546 0.1289063 0.038457245 0.018452076 0.012601154 0.07510396
0.09314606 0.10484404 -0.1277327 0.13704114 0.39415842 -0.17698082 0.0869495 -0.06598243
-0.10666528 -0.06895125 0.0633438 -0.637419 -1.553406 0.12598053 0.36443585 -0.042011946
0.015912458 -0.047599897 0.13342825 0.085104086 1.4233216 -0.06532258 -0.08118313 -0.054777145
0.04289374 0.01793528 0.13340046 -0.110292085 0.055879354 0.1237459 -0.090174 -0.046121337
0.05487053 0.11700173 0.09443462 0.11405765 0.09296608 0.27558798 0.025684066 0.11506269
0.0778396 0.20484391 -0.07598577 -0.19107181 0.13463627 -0.031090416 0.12053101 -0.07448054
0.072335705 -0.050457694 0.18492994 0.16166282 0.08253968 0.08632508 -0.062074278 0.088285424
0.07182585 -0.07794947 0.11812149 -0.10139268 0.048301864 0.5948563 -0.92503434 0.28452668
0.33588603 0.07623255 -0.033238605 0.013603121 -0.0042277067 -0.16919652 -0.1791969 -0.042404942
-0.119171895 -0.0149062425 -0.13849051 -0.06392946 -0.13909768 0.14181513 -0.13690403 -0.12351903
0.071376905 -0.07250733 0.21604818 -0.11698049 -0.06597297 0.035500363 0.1297041 -0.06478083
-0.062231775 -0.02109669 -0.10416815 -0.0787349 -0.024199814 0.018155038 0.20224532 0.119267
-0.017597407 -0.054786287 0.14340787 0.07231345 -0.0425239 0.023031574 0.13522185 -0.11350098
0.09997754 0.00559403 -0.06329496 0.10527912 0.053156942 0.13598274 -0.072999224 -0.025971375
0.04809113 -0.04345108 -0.11924243 -0.108130455 -0.09055291 -0.053548686 -0.08810821 -0.011951551
-0.060277298 0.13835551 -0.033852264 -0.062389508 -0.13299166 -0.07423571 0.060444146 0.054006785
0.027698636 0.056787446 0.06636143 0.009967625 -0.09505956 0.03362842 -0.0014752597 0.11801483
-0.13734493 0.006051317 -0.010814831 -0.10914247 0.016867816 0.1279489 -0.056515217 0.0074992776
-0.029598974 -0.06503131 -0.08405845 0.09584762 -0.0720923 -0.1276412 -0.049842037 0.09735386
0.023300037 -0.02670414 -0.077148326 0.031948626 -0.09660028 -0.02327799 -0.07194742 -0.10990022
-0.099286735 -0.07510771 -0.022666462 0.083164304 -0.12238462 -0.009667262 0.009082764 0.08562869
0.012628153 0.12718372 0.055244863 -0.018651329 -0.0017573088 -0.041538134 -0.13357924 0.07951076
0.093450874 -0.099998415 -0.089286216 0.11283089 0.06216708 0.00924021 0.036875427 -0.022844806
-0.12150197 -0.12500846 -0.04881244 -0.09200144 -0.05733511 0.02429834 -0.024641797 -0.02090428
-0.0019048899 0.11393897 0.07741667 -0.047882244 0.06460953 -0.10957989 -0.04553458 -0.0025215447
-0.12868361 -0.13178112 0.10884781 0.12972884 -0.1455433 0.09159362 -0.08994542 -0.10473777

layer_2.bias f4 [50]
00000000: b3cc 8a3d 1e9e 093e 56e2 423d 1024 563d
00000010: 38af 073d ad82 df3d 40eb 1b3d 3120 083d
00000020: ed4a 04bd 89c9 f9bd dd3f 1dbd 9487 13be
00000030: 7149 8e3d 52a3 343d 6545 d83d 0db7 fa3d
00000040: e1c2 39bc 019a a8bd 49bc ecbd 6f79 db3d
00000050: de6d bb3d d375 33bd 7fdc 3a3e 160f 2dbe
00000060: d899 d9bc a3da e13d bf80 613d 4fa5 243e
00000070: eb69 16be 5ae4 bdbd 0cdd b5bc 3c33 ed3d
00000080: f2da 50bd f81f 503e 024e 363c 2ed9 b6bd
00000090: 01e4 213d 8041 ab3c bb6f 06bd d0b6 063d
000000a0: 7b8e 11bd 8e9e c9bd f728 07be f801 5a3d
000000b0: fc90 18be 3893 513e 40d7 773b 196a dbbd
000000c0: 300b 393c 620a 8e3d
0.067773245 0.13439223 0.047579132 0.052280486 0.033126086 0.10913596 0.03806615 0.033233825
-0.032298017 -0.12196643 -0.038390983 -0.14407188 0.069476016 0.044101067 0.10560111 0.122419454
-0.011337967 -0.08232499 -0.1155935 0.10716521 0.09151815 -0.043813538 0.18248175 -0.16900286
-0.026562616 0.1102803 0.055054422 0.16078685 -0.14688842 -0.0927207 -0.02220013 0.11582038
-0.050990053 0.20324695 0.011126997 -0.089281425 0.039524082 0.020905256 -0.0328214 0.032889187
-0.03553627 -0.09844695 -0.1319922 0.053224534 -0.14899057 0.20466316 0.0037817508 -0.10713596
0.011294171 0.06935574

layer_3.weight f4 [50, 50]
00000000: 13a0 1f3d 96fa 2fbc 960f e0bd d085 123c
00000010: 5ca7 dbbc 30b5 043e 0a76 56bc e01b 963b
00000020: 0e65 0a3d 126f 04bd 2023 34bd 8043 753d
00000030: 9150 3bbc 5ab6 04be 3df1 1fbe 627d 853d
00000040: 4e23 fbbd 86ce ec3d b05c 2fbd f948 2abd
00000050: 339b 513d 0ea5 d43d d64c dfbd 1323 2cbd
00000060: 5135 27be 705b 3abd a27a f5bd 9fd1 083e
00000070: 96f8 f53c c1df a53c 307f 583d 89a4 a83b
00000080: d70a 753d b9a1 2dbd bbe2 c3bb df20 0ebe
00000090: 90ec cabd b47e e3bc 7a38 babc baa0 89bd
000000a0: 7b06 e23d c1bb d6bd 5155 9a3d 9074 26be
000000b0: 18e6 0fbe 3c13 803d b2bd f43d 9219 0e3c
000000c0: 4cad 623d 0cb3 f63d 6635 a9bd b43f ba3d
000000d0: 3cf0 13bd 9692 c13d 7a5c d03d 9a9c 20bd
000000e0: 97c5 d93d e497 8a3d 4a6d 2fbd f231 0cbd
000000f0: 0095 74bd 1015 573c cb62 0cbc 6c8b c83d
00000100: bcca 2f3d 5780 09be eaee 97bd d070 b7bd
00000110: 3a88 5dbd 0f28 98bb c8d6 233d b936 d7bd
00000120: 3100 f1bd 73ca fd3c b08b cabc a029 1d3d
00000130: c449 a6bd a2bb 3cbd 44f2 57bd 8886 f33c
00000140: 0ef2 f33d 2038 c83d 374e 1c3d 5a41 8fbd
00000150: d779 08be 80b9 acbd 92d8 39bd 88a9 0dbd
00000160: 099c 24be 600f 10be ba38 843d 3691 a4bd
00000170: 2cb4 1b3d c094 2cbc e2c4 a33c 0b70 85bd
00000180: 2865 0bbe 9dd8 d8bd e706 afbd ce1f 68bd
00000190: 3ecc f8bc 2bed 243d 9895 2c3e d022 623c
000001a0: 5057 45bc 2e92 a53b 58d2 80be 7e23 d83d
000001b0: b9fe 193e 30eb 443c 8151 003d 2745 05be
000001c0: 03e2 2ebd 445c debd 3c36 24be 93f6 a63c
000001d0: f2af b4bd cc67 193d 6b88 e7bd a672 243d
000001e0: 33ba 413e 1de0 8c3d fee5 283f b456 97bd
000001f0: 5632 363e 7915 063e 5920 e9bd 4807 3bbf
00000200: d751 bb3d 5345 c8bd 3863 8e3c 5f0b 3c3d
00000210: 7981 103e 196e cd3d 29b9 023e d201 0a3d
00000220: 6b4c 8d3d e032 483c 5ad3 8c3e 2918 bebd
00000230: 06f0 d4bd a7a8 f73c 911e e03c 28e8 d43d
00000240: 8daf 573d 74ad 1c3e 8ef6 d2bd 847a 2a3e
00000250: 8ec4 c7bd 812a d33d 9950 0dbe 4520 843e
00000260: 8f76 0a3e 9c79 d3bd 06d6 b53d 1606 9cbd
00000270: 532d f33d 6021 133d 5276 e33d 31b4 023e
00000280: 748f e2bd c22d 583d e630 4ebd 0be7 c93d
00000290: 5acf 73bd de6b 8abb 6066 e3bd 16a9 c23d
000002a0: 45b9 d23d d82a 5bbd 117a 423e ad2b 013e
000002b0: 1aad 97bc 3323 d2bd 9a2a a63e 59d8 00bd
000002c0: 4177 843c 6005 26be 40e1 13bd 8fb3 e1bd
000002d0: 50a6 5c3d 7dd4 9e3d 9136 10be b510 1a3e
000002e0: 4187 13bd 461d a1bd 594d 4a3d 80e7 abba
000002f0: a86e 133e 8c94 c8bc 7434 69bd 4866 2d3c
00000300: fd86 21be ddb8 2a3e 345b 923d d106 4ebd
00000310: 006a 6e3a 3e5e 023e e029 c33c 7cfe 973c
00000320: 1d84 143d 8d9b 25be b2aa 083d 6818 5e3d
00000330: 301e a93d dadb c73d 2ad9 a63c e0cc 8d3c
00000340: 34ab ab3d 2c53 0dbe 3b9b 0ebe 0832 7e3d
00000350: e389 acbc c067 f4bb 498a afbc a2d8 c0bb
00000360: 7c1c fcbd 824a 8d3d 8d59 a7bd 1579 8d3d
00000370: 1656 753d 8d90 efbd f727 e53d 0cc5 ea3d
00000380: 1211 acbd fe76 0bbe aaad d1bd a3b1 ecbc
00000390: 10e3 68bc 20a1 d33c f0e1 cb3c b1ae 00be
000003a0: de9b 79bd e824 8abc f08f 0d3d f1a3 c4bd
000003b0: 01db ffbd 4d0e 0c3e c47b 8dbd 679b 063e
000003c0: 48df 8ebc e030 adbb c8c4 293d b56a c83d
000003d0: cfe5 04be 400c 183d 588d 793d 659a a73d
000003e0: b85c c83d 0885 aebd 9a34 ac3d f4a3 df3d
000003f0: f85d bebc 3d80 013e f1b0 093e 88b0 6e3c
0.038971018 -0.010740897 -0.10940473 0.008943036 -0.026813202 0.12959743 -0.013089666 0.0045809597
0.03378778 -0.032332487 -0.04397881 0.059878826 -0.011432783 -0.12960187 -0.15619369 0.065180555
-0.12262593 0.11562829 -0.042813003 -0.0415735 0.0511734 0.10383044 -0.10903327 -0.042025637
-0.16328932 -0.045497358 -0.11986281 0.13361214 0.030025762 0.020248296 0.05285567 0.0051465672
0.05982479 -0.04239056 -0.005977956 -0.13879727 -0.09908402 -0.027770378 -0.022732008 -0.06720109
0.11036392 -0.1048503 0.07535804 -0.16255403 -0.14052618 0.06253669 0.11950244 0.008673089
0.05534105 0.12045869 -0.08262138 0.09094182 -0.036117777 0.09451787 0.101738885 -0.039211847
0.106333904 0.06767252 -0.042828836 -0.03422732 -0.05971241 0.01312758 -0.008568476 0.097922176
0.042917952 -0.13427864 -0.07418616 -0.08957064 -0.054084994 -0.004643447 0.039999753 -0.105084844
-0.11767615 0.030980324 -0.024724811 0.038369775 -0.081195384 -0.046077378 -0.052721277 0.029727235
0.11911403 0.0977633 0.03816053 -0.06994887 -0.13327728 -0.08433819 -0.045372553 -0.034585506
-0.16075148 -0.14068365 0.06456132 -0.08035509 0.038013622 -0.010533512 0.019991342 -0.06515511
-0.13612807 -0.10588191 -0.085462384 -0.056670956 -0.030370828 0.040265244 0.1685394 0.013802245
-0.012044743 0.0050528264 -0.2516048 0.105536446 0.15038575 0.012018964 0.03132773 -0.13014661
-0.04269601 -0.10857442 -0.16036314 0.020381248 -0.088226214 0.037452504 -0.113053165 0.0401484
0.18918686 0.06878684 0.6597594 -0.07389584 0.17792639 0.13094129 -0.11383123 -0.73057985
0.09146469 -0.097788475 0.017381296 0.04590928 0.1411189 0.10030765 0.12765945 0.033693142
0.06899341 0.012219161 0.27504998 -0.09281952 -0.10397343 0.030231787 0.027358325 0.10395843
0.052657653 0.15300542 -0.10300933 0.16648299 -0.09754287 0.10310841 -0.13800277 0.2580587
0.13521789 -0.103259295 0.08878712 -0.07618348 0.11873879 0.0359205 0.11106552 0.1276405
-0.11062518 0.052778013 -0.050339602 0.09858521 -0.059523918 -0.0042242846 -0.11103511 0.09504907
0.102892436 -0.053507656 0.18991877 0.12614317 -0.018515158 -0.1026062 0.32454377 -0.031456325
0.016170146 -0.16212988 -0.036103487 -0.11020576 0.053869545 0.07755373 -0.14083315 0.15045436
-0.03601766 -0.078669116 0.04939017 -0.0013115257 0.14397681 -0.024484895 -0.05693479 0.010583468
-0.1577415 0.16672082 0.07146302 -0.05029947 0.0009094775 0.12731263 0.023823678 0.018553965
0.036258806 -0.16172619 0.033365913 0.054222494 0.08257711 0.0975873 0.020367224 0.017309606
0.08382264 -0.13801259 -0.13926403 0.062059432 -0.021061843 -0.007458657 -0.021428244 -0.0058851996
-0.123101205 0.06898977 -0.08171377 0.0690786 0.05989655 -0.11697493 0.11189263 0.11463365
-0.084016934 -0.1361961 -0.10238202 -0.028893298 -0.014214292 0.025833666 0.024888009 -0.1256664
-0.060939662 -0.016863301 0.034561098 -0.09601582 -0.124929436 0.1367733 -0.06908372 0.13145219
-0.017440453 -0.0052853674 0.04144743 0.09785978 -0.1297829 0.037121058 0.06092581 0.08183745
0.0978331 -0.085214674 0.084084705 0.109199435 -0.023238167 0.12646575 0.13446404 0.0145684555

layer_3.bias f4 [50]
00000000: fa32 a83b b2f4 60bd 8ba4 fd3d ff6f f73d
00000010: 55e1 2fbe be7b d73d dbb8 84bd 91c3 bebd
00000020: 8b44 f53d dad8 8abd a148 353e 95a4 a1bc
00000030: 63fb 19be 82ce a43d 280e 91bc 2543 a93d
00000040: b5e5 073e 914a 013e e506 e23d 7594 fa3d
00000050: f3ba 1c3e 9e45 a73d 374d a53d e3b1 75bd
00000060: bcd8 7e3d abaa d8bd 9dc3 c53d 4f93 e63d
00000070: eb9b 373e cc50 62bd 89cb 22bd 9abf b1bd
00000080: 245f 783b 8d75 6b3e 76b2 453d accd 8b3d
00000090: 4aa8 1a3d 17e2 0fbe dec3 0bbe 28e5 cd3d
000000a0: 6a6f 69be 768e b13d 1f4d c93c d29f 903d
000000b0: f799 33be 75b9 9a3d ab0f 9ebd e409 203d
000000c0: 84dd 82bd 6658 0cbe
0.00513303 -0.05492086 0.123849 0.120819084 -0.17175801 0.10521649 -0.06480571 -0.09314645
0.11975964 -0.067796424 0.17703487 -0.0197318 -0.15037303 0.08047201 -0.017706946 0.0826476
0.1327122 0.12626101 0.11036471 0.12235347 0.1530569 0.08167575 0.08071368 -0.0599841
0.062218413 -0.10579427 0.09656451 0.11258566 0.17930572 -0.055252835 -0.039744888 -0.08679123
0.0037898505 0.22994061 0.048265897 0.06826338 0.03775815 -0.1405109 -0.13648936 0.10053474
-0.22796407 0.086697504 0.024572907 0.07061733 -0.17539202 0.07554904 -0.07717832 0.039071932
-0.06389907 -0.13705596

output_layer.weight f4 [4, 50]
00000000: caca 223e 1273 c63b f69a 7a3d f944 1d3e
00000010: bc5b c7bd 700f adbd 546e c33d a9b9 6fbd
00000020: 225f 8f3d c625 013e dd9a 623e cf97 aa3d
00000030: e7f8 06bd a2ed 253e 0037 7f3c 90aa 3f3e
00000040: 8e39 283e aac2 a63d b39d 0c3e f64c 4dbd
00000050: ddfa 373e 5a77 a4be d0eb 363e 15a7 ac3d
00000060: 7d47 763d 5824 fbbc 3052 403d 3961 2d3e
00000070: 935b edbc 9949 edbd d2fd f83d e733 1a3e
00000080: a560 7f3e 88e2 5f3e c627 cabd 2afc 003d
00000090: 20b1 22bd 16ca 11bd c6df 8ebd c3ef 583d
000000a0: 6580 5c3e 3388 00be fe61 6bbf 474e 66bd
000000b0: e039 463d 21e1 c43d 7ee2 78bd 7d8c 033e
000000c0: 5280 ed3d dcda 0abd 32fe 24bd e204 01be
000000d0: 552d 063e dd7b 173e 8de9 2f3d 51ed d8bb
000000e0: ae12 c7bd 12e2 533d 9198 2c3e c218 d23d
000000f0: e6d6 773e 2a19 0fbe e097 dbbd 5679 213d
00000100: 022d 073d 9303 393e f77d 3c3e b92e 693e
00000110: 21f5 453e 609d c1bc 28bb 3e3e 6673 bcbe
00000120: 6912 5e3e ede7 fb3b 58a1 6abc 5ca8 d83d
00000130: b8b3 a83d 63e4 3ebc ab76 5f3e 2e85 cbbd
00000140: 8fce aa3d bff5 823d 5535 58bd 6a69 263e
00000150: 353f 50bd 4236 423e e898 21bd c4ff 9a3d
00000160: 1366 bebd 1acf 033e ce0f b1bd 574c 973c
00000170: 2e1e ac3d 11bb d7bd 9d6a 573d b5d0 4ebd
00000180: b67c 32bd d6e2 543e cb03 5b3d 44a9 bbbc
00000190: 9a4a 2c3a 79c7 7d3c 8e79 393e 2b8a 723d
000001a0: 1ff4 80bd 8ccd 76bd 700e b73d 0815 403c
000001b0: d78d 123d 7a60 17bd 5733 1c3e 31a6 f33c
000001c0: 20db af3d 11e7 1e3e 24db a43d 85aa db3d
000001d0: e454 f0bb e496 5a3d 1ea7 0e3e 1635 54bd
000001e0: adbe 833e c95b 08bd 0cbe 9f3c ed5b 5d3d
000001f0: 26dc c9bd 2a79 7c3d 5ed3 c03d 378a 1d3e
00000200: def9 4d3e e293 00be 7ae8 233c 8eab 0f3e
00000210: 16f2 05bd 6008 4b3e 759b c9bd 61df babc
00000220: 7ef2 b1bd 0064 e939 2957 e53d 4ada 133e
00000230: 3db3 113e aadf 5abe 867c 463e 27ff e0bc
00000240: f23b c73d a254 afbe c1ae 54bb 7a59 393e
00000250: 78c2 a1bc 50cc ad3c 6d2d 9e3d 529c e93d
00000260: 402d 5d3c 5f6b 7d3d 7e9e 9d3d 1b0e f73d
00000270: b89d adbd 7cf0 39bd cee9 0fbe ba51 0fbe
00000280: 794f fabd 218e 88ba 282c e0bc dbbd de3d
00000290: 1cb5 8cbc cb89 08be eed5 773d eadc 933d
000002a0: 88aa d0bd 723a 8c3d eccd 2cbd 1be4 90bc
000002b0: 6961 79bd 40fd 35be f1de 933d e030 1abc
000002c0: c493 1a3a aab2 933d 3cdf bebc 9e85 a3bd
000002d0: 52c3 a93d 2cab 753d 4c43 be3d 38bd 1d3d
000002e0: a65e fa3d 0706 143c 6642 c93d f21a bbbd
000002f0: 185f 833c c800 873d 5eff 25bd 2099 023e
00000300: d55c 22bd ab5b a93d 230f 413d 9e8f bf3d
00000310: 00f4 10bc 1f5d 71bd 5add fc3d faf0 7fbd
0.1589767 0.006056198 0.06118294 0.15358342 -0.09734294 -0.0845021 0.09542528 -0.05852667
0.07000567 0.12612066 0.22129388 0.083297364 -0.032952216 0.16203931 0.015577078 0.18717408
0.16428205 0.08142598 0.13732032 -0.050122224 0.1796679 -0.32122308 0.17863393 0.08430306
0.06012677 -0.030656978 0.04695338 0.16931619 -0.02897433 -0.11586303 0.121577874 0.15058862
0.2493921 0.21863759 -0.098708674 0.031490482 -0.0397197 -0.035593115 -0.06976275 0.05296303
0.21533354 -0.12551956 -0.919464 -0.056226995 0.048395038 0.096132524 -0.060762875 0.12846561
0.11596741 -0.033900127 -0.040281482 -0.12599519 0.1310323 0.14793344 0.04294734 -0.006620087
-0.0972036 0.05172927 0.16855074 0.102586284 0.24203071 -0.13974443 -0.10722327 0.039422356
0.033001907 0.1806777 0.18407427 0.2277173 0.1933179 -0.023634613 0.18626082 -0.36806792
0.2168671 0.00768756 -0.014320694 0.10578987 0.08237404 -0.011651131 0.21822612 -0.099375114
0.08340179 0.063945286 -0.052785236 0.1625115 -0.05084153 0.1896601 -0.039452463 0.07568315
-0.09296813 0.12871972 -0.08645593 0.018469019 0.08404194 -0.10533727 0.05259191 -0.050492007
-0.043575965 0.20789656 0.053470414 -0.02290786 0.0006572396 0.0154894525 0.18112776 0.0592138
-0.062965624 -0.06025462 0.089383006 0.011723764 0.0357798 -0.03695724 0.1525396 0.029742332
0.08586717 0.15517832 0.0804961 0.107258834 -0.0073343385 0.053366557 0.13930938 -0.05180844
0.25731412 -0.03329066 0.019499801 0.054042745 -0.09856443 0.06163899 0.09415315 0.15384756
0.20114848 -0.12556413 0.010004157 0.14030287 -0.032701574 0.19827414 -0.09844104 -0.022811593
-0.0868883 0.0004451573 0.11198265 0.1443874 0.1422853 -0.21374384 0.1938344 -0.027465416
0.097282305 -0.34244257 -0.0032452794 0.18100539 -0.01974605 0.021215588 0.07723508 0.11406769
0.013499558 0.061869975 0.076962456 0.12063237 -0.08477348 -0.04539536 -0.14054033 -0.1399602
-0.122221895 -0.0010418334 -0.027364805 0.10876056 -0.017176203 -0.13333814 0.060506754 0.072198704
-0.10188776 0.06847085 -0.04218857 -0.017686894 -0.060883913 -0.17772388 0.07220257 -0.009411067
0.00058966526 0.07211812 -0.023299806 -0.0798447 0.082892075 0.059977695 0.092901796 0.03851053
0.12225084 0.00903464 0.098271176 -0.09135999 0.016036555 0.06591946 -0.04052674 0.12753725
-0.039639313 0.082694374 0.047133576 0.09353565 -0.008847237 -0.058926698 0.12346907 -0.062485673

output_layer.bias f4 [4]
00000000: 9818 c23d 106d 4dbd 9116 113e d82b 60bd
0.09477347 -0.05015284 0.14168765 -0.054729313
